models/best_model_for_c_1.pth (torch, 3752 bytes, 4 tensors)

conv1.bias f4 [32]
0	0xbce14c06	-0.027502071
1	0xbe33b4ee	-0.17549488
2	0xbd4f47ef	-0.05060571
3	0xbc6f437b	-0.014603491
4	0xb8e62711	-0.00010974531
5	0xbe0b7762	-0.1361976
6	0xbe19934d	-0.14997597
7	0xbe12752c	-0.1430251
8	0xbe451018	-0.1924442
9	0xbe94eb03	-0.2908555
10	0xbf8cc68f	-1.0998095
11	0xbe7340ba	-0.2375516
12	0xbe226126	-0.15857372
13	0xb929ce6f	-0.00016193998
14	0xbd04172b	-0.032248657
15	0xb8816a19	-6.1709616e-05
16	0xb16c112a	-3.4352277e-09
17	0xbeef6770	-0.46758604
18	0xb977ebde	-0.00023643623
19	0xbe4b2182	-0.19837001
20	0xbe2f096b	-0.17093436
21	0xb240e768	-1.1228487e-08
22	0xb8570634	-5.126577e-05
23	0xbd271536	-0.040791713
24	0xbc2327f2	-0.009958254
25	0xbe2da345	-0.16956814
26	0xbccf2115	-0.02528433
27	0x3c5edc22	0.013602288
28	0x3e2ea7b1	0.17056157
29	0xbb37bafc	-0.0028035035
30	0xbf1def03	-0.6169283
31	0xbf364963	-0.7120573

conv1.lin.weight f4 [32, 8]
0	0xbd66355f	-0.056203242
1	0x151c78f1	3.1599355e-26
2	0x3cbddcc3	0.023176556
3	0x3ea5397c	0.3227042
4	0xbf179d01	-0.59223944
5	0x405fd991	3.4976542
6	0xbf058c39	-0.5216709
7	0xbed7c4d1	-0.42142347
8	0xbd276c52	-0.040874787
9	0x13d7d072	5.4479173e-27
10	0xb921474d	-0.00015380718
11	0xbdf4baa1	-0.11949659
12	0x14859090	1.3486588e-26
13	0x16a2edab	2.63225e-25
14	0xbe65a1aa	-0.22424951
15	0xb7ce86a7	-2.4619816e-05
16	0xbbd5e8cb	-0.006527995
17	0x1505df75	2.7035413e-26
18	0xba98865a	-0.001163672
19	0xbc3e50d0	-0.011615947
20	0x948103f1	-1.3027226e-26
21	0x193847b1	9.527055e-24
22	0xbc41132a	-0.011784354
23	0xb7523734	-1.2529828e-05
24	0xb97bbebe	-0.00024008282
25	0x14b78c62	1.8533649e-26
26	0x3870e58c	5.743424e-05
27	0x1479b170	1.2606281e-26
28	0x957410a6	-4.928854e-26
29	0x93d38e2b	-5.3404077e-27
30	0x941cab3b	-7.9097565e-27
31	0xb23061cc	-1.0266785e-08
32	0xac6ccb76	-3.365056e-12
33	0x9487852c	-1.3684043e-26
34	0x2d3f6133	1.08786756e-11
35	0xaec412bd	-8.916377e-11
36	0x944f4113	-1.0463663e-26
37	0xaa4ad2a4	-1.8014285e-13
38	0xb80be3fd	-3.3352513e-05
39	0xacfdca82	-7.2131754e-12
40	0xbc5e5894	-0.013570923
41	0x143ba5db	9.4737965e-27
42	0xba7fed07	-0.0009762798
43	0xbe10b9f7	-0.1413344
44	0x9508485b	-2.752206e-26
45	0x16674e1c	1.8684678e-25
46	0xbe0f7fc1	-0.14013578
47	0xb75b657b	-1.3077045e-05
48	0xbe60ce7f	-0.21953772
49	0x158f9ffd	5.800966e-26
50	0x3ef5636c	0.47927415
51	0x3f3ef5c8	0.7459378
52	0x93d98c03	-5.4916563e-27
53	0x4064cf20	3.575142
54	0xbf07a4a8	-0.5298562
55	0xbdd8718c	-0.10568532
56	0xbcbea73a	-0.0232731
57	0x14403440	9.703827e-27
58	0xbc81a216	-0.015824359
59	0xbd97068f	-0.07374298
60	0x9387bf3e	-3.426737e-27
61	0xaa7f2434	-2.266111e-13
62	0xbdb4c6d1	-0.08826984
63	0xba5ce7aa	-0.00084268546
64	0xbc9cf1c7	-0.019158257
65	0x94836fd9	-1.3271736e-26
66	0x3e2e282f	0.17007516
67	0xbe58a502	-0.21156695
68	0x94550830	-1.07553666e-26
69	0x233ae468	1.0131447e-17
70	0xbe08aacd	-0.13346405
71	0x3c53db24	0.012930665
72	0xbe823c21	-0.254365
73	0x93db9363	-5.5428707e-27
74	0xbe193faf	-0.149657
75	0x3ed1890b	0.40924868
76	0x14be6748	1.9225834e-26
77	0xc01dc706	-2.4652724
78	0x400e540f	2.2238805
79	0xbe64716b	-0.2230889
80	0xbf86fd50	-1.0546055
81	0x94fe704b	-2.5691738e-26
82	0xbf9b41a8	-1.2129412
83	0x3ef0642e	0.4695143
84	0x3eb5f3a7	0.35537454
85	0x3fabd171	1.3423291
86	0xbf94e237	-1.1631535
87	0xbf054845	-0.520634
88	0xbe5b4b6e	-0.21415493
89	0x95087002	-2.755334e-26
90	0xbbdcf3a5	-0.006742912
91	0x3dd03009	0.10165412
92	0x943c42dd	-9.504761e-27
93	0x3c7f2363	0.015572402
94	0xbdffda78	-0.124928415
95	0xbb95698e	-0.0045597022
96	0xbd503e5f	-0.05084073
97	0x14bc0e17	1.8988706e-26
98	0x3f26997a	0.65077937
99	0x3f09509e	0.5363864
100	0xbf3cf23b	-0.73807114
101	0x4057cd9e	3.3719249
102	0xbf191ec7	-0.5981259
103	0xbf2521a4	-0.64504457
104	0x290235fe	2.891263e-14
105	0x95028b8c	-2.6363374e-26
106	0x157031c6	4.8506878e-26
107	0xb9b94f44	-0.00035345007
108	0x158777ac	5.4714875e-26
109	0x96d1e4b4	-3.3910103e-25
110	0xb9e85a0c	-0.00044317578
111	0x964071d0	-1.5545549e-25
112	0xb9613972	-0.00021479072
113	0x144a0b85	1.02006656e-26
114	0x153130cd	3.5783362e-26
115	0xbce681eb	-0.028138122
116	0x948589fe	-1.3483996e-26
117	0xba4020e0	-0.00073291175
118	0xbbb4fae7	-0.005523074
119	0x9afdeea6	-1.05023905e-22
120	0xa550b5c3	-1.8102707e-16
121	0x95057abb	-2.6955953e-26
122	0x14142659	7.479653e-27
123	0xb9422f63	-0.00018518935
124	0x9539f5d6	-3.7554383e-26
125	0xb9206afd	-0.00015298645
126	0x954df8f2	-4.1595804e-26
127	0x963f76f9	-1.5466398e-25
128	0x1cd5c2b0	1.4145483e-21
129	0x1485e8cf	1.3521395e-26
130	0x9fb8999c	-7.8181157e-20
131	0x1550c7c7	4.2162862e-26
132	0x141fef5b	8.074653e-27
133	0x14f13361	2.4355047e-26
134	0x94352e1d	-9.147259e-27
135	0x989ca703	-4.0493694e-24
136	0xbeed9a10	-0.46406603
137	0x941dbfd2	-7.964304e-27
138	0x3f57cc8b	0.8429648
139	0x3e8d5f29	0.27611664
140	0xbf9efeea	-1.2421544
141	0x40655075	3.5830357
142	0xbf09d5fa	-0.5384213
143	0xbf704202	-0.9385072
144	0x28a0e225	1.7861643e-14
145	0x14e723d2	2.3339168e-26
146	0x156c3fd3	4.771017e-26
147	0xb9831348	-0.00025000633
148	0x13872967	3.4119617e-27
149	0xb9cecc80	-0.00039443746
150	0x9c55d884	-7.075563e-22
151	0x16cd1624	3.313351e-25
152	0xbd80fb46	-0.062979266
153	0x1520ee95	3.249995e-26
154	0xbd820eb9	-0.063504644
155	0xbdb59fc8	-0.088683665
156	0x14a37d0b	1.6508115e-26
157	0x3a2b1d16	0.00065274665
158	0xbdcc2d26	-0.09969549
159	0xbc2355ae	-0.009969158
160	0x3b38af51	0.0028180669
161	0x938b34ab	-3.5140468e-27
162	0xbde6548f	-0.11246597
163	0xbdd51129	-0.10403664
164	0x945aa182	-1.1038039e-26
165	0x3c2d2682	0.010568263
166	0xbd879f73	-0.066222094
167	0x3c2f550a	0.010701427
168	0x1ba9d7ff	2.809829e-22
169	0x94814115	-1.3051342e-26
170	0x143412db	9.091396e-27
171	0xb380fac4	-6.0060785e-08
172	0x1419ee49	7.7715194e-27
173	0x240c23d9	3.0388025e-17
174	0x247dbbf6	5.501984e-17
175	0x1607e185	1.0976375e-25
176	0x27c490e4	5.455802e-15
177	0x92139ce4	-4.6578404e-28
178	0xae452e89	-4.4833946e-11
179	0x14f95626	2.5176554e-26
180	0x13f60616	6.210513e-27
181	0x139e619c	3.9981058e-27
182	0x943f3cc7	-9.655022e-27
183	0x9d308cad	-2.3366134e-21
184	0xbb3a4e76	-0.0028428114
185	0x1435b964	9.1747266e-27
186	0x3a461b71	0.00075571897
187	0xbd929035	-0.071564116
188	0x953a7bd2	-3.7660078e-26
189	0x3791639a	1.7331728e-05
190	0xbd65f299	-0.056139562
191	0xb68ac498	-4.135607e-06
192	0xb737b661	-1.0950113e-05
193	0x942b74b6	-8.656311e-27
194	0x9581cf16	-5.242941e-26
195	0xbb0c8490	-0.0021441318
196	0x14b293e4	1.803174e-26
197	0xbc6a18d8	-0.01428815
198	0x15933b31	5.9466215e-26
199	0x18aaf876	4.419485e-24
200	0xbda90da3	-0.08254554
201	0x932cf7e9	-2.1831681e-27
202	0x3eeec024	0.46630967
203	0x3ea9a5ce	0.3313431
204	0x94954b65	-1.5074893e-26
205	0x405378e1	3.3042529
206	0xbee50c17	-0.44735786
207	0x3e4246a4	0.1897226
208	0xb94e832b	-0.00019694555
209	0x14b58e1d	1.8332383e-26
210	0xb6f9839b	-7.436099e-06
211	0xbb19262c	-0.00233687
212	0x14892140	1.384658e-26
213	0x95cdbc45	-8.309588e-26
214	0xbb149de5	-0.002267712
215	0xae617c4a	-5.1269468e-11
216	0xbc7718e8	-0.015081622
217	0x152606cb	3.3528792e-26
218	0x3ed87fbb	0.4228495
219	0x3f03e8e2	0.51527226
220	0xbf37b007	-0.7175297
221	0x403de902	2.9673467
222	0xbef88d14	-0.48545134
223	0xbf3b2056	-0.73096216
224	0x3e34d050	0.1765759
225	0x94cedcbf	-2.0887753e-26
226	0x3eb8bb23	0.36080274
227	0x3ea85864	0.32879937
228	0xbf60a2c2	-0.8774835
229	0x4044c4be	3.0745082
230	0xbf43d8b2	-0.76502526
231	0xbda2eba9	-0.07955105
232	0xb26efceb	-1.391093e-08
233	0x9477eb12	-1.2516673e-26
234	0x11e5b9d3	3.6244352e-28
235	0xbb9700df	-0.004608258
236	0x15530a76	4.2619363e-26
237	0xba30729b	-0.0006730945
238	0xb3e690b4	-1.0736531e-07
239	0x1580eee7	5.207571e-26
240	0xbec06059	-0.37573507
241	0x141c9b46	7.9066096e-27
242	0xbe7b341b	-0.24531595
243	0xbb11008a	-0.0022125565
244	0x14f8e950	2.5133626e-26
245	0x978feef2	-9.301477e-25
246	0xbb0c4d27	-0.002140829
247	0xbe277deb	-0.16356628
248	0xbeab5e21	-0.33470252
249	0x94fac55a	-2.532139e-26
250	0xbeb37735	-0.35051885
251	0xa1cb789c	-1.378774e-18
252	0x1509ec27	2.785322e-26
253	0x20f6d377	4.1813957e-19
254	0x18a070f2	4.1473076e-24
255	0xbed671fe	-0.41883844

conv2.bias f4 [2]
0	0x3f0f0099	0.55860287
1	0xbf0f00aa	-0.5586039

conv2.lin.weight f4 [2, 32]
0	0xbf6a8a5c	-0.9161737
1	0x3d77eb0b	0.06052689
2	0x3c0781fc	0.008270737
3	0xafe04fc4	-4.080204e-10
4	0x3569b6eb	8.7065445e-07
5	0x3a4b8f1a	0.0007765159
6	0xbf697af5	-0.9120324
7	0x3e221784	0.15829283
8	0xbdedead6	-0.11617057
9	0x3f628fcc	0.88500667
10	0x3ddb04fb	0.10694309
11	0x3c395e24	0.011313949
12	0xbf9f3aac	-1.243978
13	0x3bb44eaa	0.0055025415
14	0x3872a64a	5.7852165e-05
15	0xad09563b	-7.806695e-12
16	0x96c602b3	-3.1990329e-25
17	0xbf8821fb	-1.063537
18	0xbaf569d5	-0.0018723557
19	0x3e2b73fc	0.16743463
20	0x3dc5e4ce	0.09662782
21	0xb5ba431b	-1.387761e-06
22	0xb9b140c8	-0.00033808337
23	0x3c89808a	0.016784925
24	0xb859cd47	-5.192801e-05
25	0xbf66b7ad	-0.90124017
26	0x3ceaefab	0.028678736
27	0xbfa640e7	-1.2988557
28	0xbf7cc5d5	-0.9873937
29	0xba41cf91	-0.00073932955
30	0xbe4eca97	-0.2019447
31	0xb9907f9b	-0.00027560894
32	0x3f6a4897	0.91517013
33	0xbd858c01	-0.06520844
34	0xbcc0309c	-0.023460679
35	0x3086747b	9.782889e-10
36	0xb56df61c	-8.8647516e-07
37	0x38b0398f	8.403055e-05
38	0x3f89a897	1.0754575
39	0xbe231e39	-0.15929498
40	0xbe1342e9	-0.14380993
41	0xbf777906	-0.9666904
42	0xbe8d4193	-0.27589092
43	0xbe83e6e5	-0.25762096
44	0x3fb11891	1.3835622
45	0xbbf36cc1	-0.007428736
46	0xb9295eae	-0.00016152367
47	0x2ec9b28b	9.1721374e-11
48	0x168fcea0	2.3233295e-25
49	0x3f9a48c2	1.2053454
50	0x3a688fc1	0.00088715187
51	0xbe1f6c05	-0.1556855
52	0x3dcec21b	0.100956164
53	0x35160d09	5.5898323e-07
54	0xb81f190a	-3.7931874e-05
55	0xbc6ca254	-0.014442999
56	0x37d7e7bf	2.5737912e-05
57	0x3f89d709	1.0768749
58	0xbce4e4d0	-0.027941138
59	0x3f97441e	1.1817663
60	0x3f66b48b	0.90119237
61	0x3aa12e1c	0.0012297067
62	0x3e3b24e9	0.18275799
63	0x3990ae81	0.00027595836
