models/best_model_for_c_full_adder.pth (torch, 4016 bytes, 4 tensors)

conv1.bias f4 [32]
000000 5b e0 22 be 83 35 79 bc 3f 3e 71 bf eb af 44 be
       -0.15905897 -0.015210512 -0.94235605 -0.19207732
000010 a0 d7 88 bf 3a af 94 bc 26 fc 20 bf 44 f4 77 b7
       -1.0690804 -0.01814996 -0.6288475 -1.477922e-05
000020 a1 ad 4d bf 98 d9 08 bf 5c 39 5e bf 99 bd 2c be
       -0.8034306 -0.5345702 -0.86806273 -0.16869201
000030 2b 41 03 bf d3 92 4e bf 20 ef 31 bf 55 3e 92 bc
       -0.51271313 -0.80692786 -0.695055 -0.017851988
000040 09 82 bb bd f1 cd 31 be 89 b8 99 be 2b ac 53 be
       -0.091556616 -0.17363717 -0.30023602 -0.20671146
000050 1f d5 47 bf db 1d 9e be 3c 44 a6 bf 65 57 5b be
       -0.7805957 -0.30882153 -1.2989573 -0.21420057
000060 19 c5 67 bf e9 ad 0c bf 4c a1 99 be 9b 4e 2d bd
       -0.9053512 -0.54952866 -0.30005872 -0.042311292
000070 65 a3 d7 be 55 80 8e bf 71 10 8a bc 53 07 c3 be
       -0.42116848 -1.1132914 -0.016853543 -0.38091525

conv1.lin.weight f4 [32, 9]
000000 21 8f 18 bd 60 68 2e 85 6f 1b 00 80 e7 6a 2f be
       -0.037245873 -8.200611e-36 -9.841e-42 -0.17130624
000010 82 6a ac 38 e8 31 53 b6 0e 2a 01 be c0 69 f1 bc
       8.221438e-05 -3.14705e-06 -0.12613699 -0.02946937
000020 71 99 8f 3b f2 9a 16 3c 6c 5a 94 b5 4c 6e 1d 3b
       0.0043823053 0.009192215 -1.1053176e-06 0.002402204
000030 f6 cc ff bb 55 bf 94 2c 18 05 d0 3a b7 3f cd bc
       -0.0078064157 4.227655e-12 0.0015870659 -0.025054796
000040 7a 2b 97 3b 91 86 51 bc e1 20 f6 be e7 e1 b4 3d
       0.004613337 -0.012788431 -0.4807196 0.0883215
000050 52 03 bf 23 2c 0a 29 bf 1b 5b 72 3b 5c 20 00 00
       2.0709668e-17 -0.66031146 0.0036980573 1.1608e-41
000060 ff d6 24 3f f3 4e 0f bf b2 ee 15 bf 95 12 86 bd
       0.6439056 -0.5597984 -0.58567345 -0.06546513
000070 3b 1f 21 a2 66 1b 00 00 c3 87 16 be 69 aa e8 39
       -2.1836102e-18 9.829e-42 -0.14700226 0.00044377454
000080 4a 72 52 b9 b8 ea 32 be e3 60 77 bc a7 e3 20 bb
       -0.00020069737 -0.1747235 -0.015098783 -0.0024549754
000090 28 8f c1 be dd 95 2b 3a 98 1e 00 00 6f 67 e4 be
       -0.37804532 0.00065454637 1.0975e-41 -0.44610164
0000a0 f5 f9 70 3e 89 1f 00 00 ef 50 57 3f dc cc 73 bf
       0.23532851 1.1313e-41 0.8410787 -0.95234466
0000b0 5c 10 6f be 10 09 d3 b9 ad 1b 00 00 29 1c 00 00
       -0.23346084 -0.00040251808 9.928e-42 1.0102e-41
0000c0 07 9d 36 ba bf be 11 b8 c7 2d 59 ae a8 ed ca 86
       -0.0006966148 -3.474834e-05 -4.9380746e-11 -7.633316e-35
0000d0 fb 08 d9 b7 cb b9 de 23 c7 24 86 be ef ae 4c 3f
       -2.5872598e-05 2.4147975e-17 -0.26199934 0.7995443
0000e0 d7 94 c9 be 33 1d 9e 3e cc 7e 1d 3f a1 89 b5 bf
       -0.39371368 0.30881652 0.615216 -1.4182626
0000f0 14 df 97 40 37 97 7a bf 0c 28 82 bf c4 ba a6 23
       4.745981 -0.97886986 -1.0168471 1.8076854e-17
000100 c4 22 00 80 bf 1b 00 00 56 20 00 80 44 6b 33 b8
       -1.2472e-41 9.953e-42 -1.16e-41 -4.2776825e-05
000110 5d 1b 00 80 fc ca b8 8a 7b 01 19 b8 4a 22 00 00
       -9.816e-42 -1.779491e-32 -3.647942e-05 1.23e-41
000120 bb a2 aa bc 43 ad 57 bf 12 b8 da 3e 05 72 f4 be
       -0.020829549 -0.8424875 0.4271856 -0.4774324
000130 51 e1 ae 3e 20 c3 b1 bf 46 c0 29 40 d3 3f 61 bf
       0.34156278 -1.3887672 2.6523604 -0.87988013
000140 0f 25 88 bf 46 c2 86 3f ea b1 a1 3e 12 fc 07 c0
       -1.0636309 1.0528038 0.3158105 -2.1247602
000150 7a 4b fc 3e 5e 2e ed 3e 00 a8 d6 3b 81 2b 4a 40
       0.49276334 0.46324438 0.006550789 3.1589053
000160 fd a1 51 bf 77 b9 9d be ac aa 0a bf 7e 7a 08 bd
       -0.818878 -0.3080556 -0.54166675 -0.033319943
000170 2b 46 68 bf a1 7e 6c bf 05 7e 93 3d 4f 22 00 00
       -0.9073207 -0.9238072 0.07201771 1.2308e-41
000180 4c eb fb 3f 3a d6 1c bf 86 8f 8b bf 6f 30 e0 bb
       1.9681182 -0.61264384 -1.0903175 -0.0068417112
000190 7f 36 34 19 82 21 76 b5 47 c2 ec bd 6d 83 a5 1b
       9.316787e-24 -9.16909e-07 -0.11560493 2.7381892e-22
0001a0 ef 1f 00 00 e7 6b e8 bc bb b6 be bc 97 63 52 b9
       1.1456e-41 -0.028371764 -0.023280492 -0.00020064261
0001b0 99 aa 26 bf 2e a7 9d 3f c0 42 9a 3e bf 61 d8 be
       -0.6510406 1.2316644 0.3012905 -0.42262074
0001c0 a7 f0 a4 3e b8 0c 00 00 3b e5 3d 40 d8 02 79 bf
       0.32214853 4.563e-42 2.967116 -0.97269964
0001d0 43 33 49 be cf 09 91 bd 9d e0 8b 3d 78 af f6 be
       -0.19648461 -0.07081949 0.06829951 -0.48180747
0001e0 72 13 09 bf 6a 7c 98 3e 64 6a 68 b7 1f 72 b8 3f
       -0.53545296 0.2978242 -1.3853049e-05 1.4409827
0001f0 7a 2b 82 be c1 7e 44 bf 48 10 f6 be 8b aa ed 3c
       -0.25423795 -0.7675591 -0.48059297 0.029011985
000200 67 4f cb 39 48 af b4 be 7f 1b 6f bd 65 1b 00 00
       0.00038778337 -0.3528998 -0.05837583 9.827e-42
000210 08 ea cd be d8 97 19 3f 91 c3 ca bd e3 89 0d ba
       -0.40217614 0.5999732 -0.099005826 -0.000539927
000220 ab 86 fc b8 1e 1e 00 00 dd 89 0c ba e1 69 f1 b8
       -0.0001204138 1.0804e-41 -0.00053611194 -0.00011511497
000230 db 23 99 39 1e 3c c6 2e af 72 98 b9 a5 4e 1d 25
       0.00029209148 9.0146765e-11 -0.00029077145 1.3644225e-16
000240 20 6d a8 3a 0e 1a 89 b8 d5 f3 ae b1 42 96 bd bc
       0.0012849905 -6.537522e-05 -5.091787e-09 -0.023142938
000250 4a 8c 7c 9b 4f 1d 00 00 52 48 6c 38 e7 04 44 bd
       -2.0890281e-22 1.0514e-41 5.633414e-05 -0.047856238
000260 1c 0c d5 ba 80 d2 6b 3c ab 8f d5 be 44 46 a6 3b
       -0.0016254219 0.014393449 -0.41711172 0.0050742943
000270 fa 56 c0 3b c4 75 05 ba 17 d2 cc be ae 34 02 3c
       0.0058697434 -0.0005091096 -0.40004036 0.00794713
000280 d2 3d 0e 3c c3 17 c3 be 55 4e 10 a2 fe b5 a6 89
       0.008681731 -0.38104066 -1.9557108e-18 -4.013419e-33
000290 87 5e 75 bc 5b 6e 4e bd a1 e3 24 89 f0 1f 46 23
       -0.01497615 -0.050398212 -1.9847813e-33 1.07403645e-17
0002a0 67 25 d7 9f 98 64 b8 9c 5b 08 31 be 2a c0 8d 3f
       -9.111792e-20 -1.2202101e-21 -0.17288344 1.1074269
0002b0 52 14 00 3f 01 81 1f c0 9f 48 95 3d 39 34 21 bd
       0.50031006 -2.4922488 0.07289242 -0.039356444
0002c0 26 43 83 be 76 b9 45 40 49 1e 0d bf af eb d5 be
       -0.25637168 3.0894446 -0.55124336 -0.41781375
0002d0 2c b6 8c be db ad 88 3d 5a eb d5 b2 51 17 ef be
       -0.27482736 0.06673785 -2.4903489e-08 -0.46697477
0002e0 d4 75 8f 3e d0 71 73 32 79 72 61 bf 52 61 d3 3e
       0.28019583 1.417034e-08 -0.88065296 0.41285187
0002f0 2e 35 25 bd 8b 5b 0d bf 5d d1 9c 3f 40 b2 8c 3f
       -0.04033392 -0.5521781 1.2251393 1.0991898
000300 85 15 88 3e 02 0e 71 bd c6 22 00 80 52 ef a4 bf
       0.26578918 -0.05885125 -1.2474e-41 -1.2885535
000310 7f a8 e6 3f 8f 52 c6 be d5 9d 82 bd 77 63 34 be
       1.8020171 -0.38734862 -0.0637776 -0.17616068
000320 74 e4 94 bf 12 9b a5 bf 19 97 d0 3e 7c 0d 00 80
       -1.1632218 -1.2937949 0.40740278 -4.837e-42
000330 fc f1 0a 3f ee ac 95 bf e7 c3 73 bf 8b 9f 6d bc
       0.5427549 -1.1693399 -0.952208 -0.01450337
000340 85 98 0b 9e 91 19 00 b7 a0 0c d2 bc c2 d6 fc bd
       -7.390139e-21 -7.635347e-06 -0.025640786 -0.12345649
000350 a8 50 96 b5 d4 41 42 bd ad c6 99 bd ea 5b 16 ba
       -1.1199345e-06 -0.04742606 -0.075085975 -0.0005735742
000360 10 f5 64 be bf 55 ac 19 65 33 c8 3d 68 8c 3d bf
       -0.22359109 1.7819016e-23 0.09775428 -0.7404237
000370 6c 49 ab 3e cd 85 45 37 63 5e 9b 3f 5c 13 84 be
       0.33454454 1.1773268e-05 1.213818 -0.2579602
000380 07 e8 dd be 10 99 f8 bc c0 e3 2b bf 07 f2 ce ba
       -0.43341085 -0.030346423 -0.67144394 -0.0015788683
000390 1c 59 4d bc e3 7f 2e 3e 83 3b a6 bf ab 74 a8 bf
       -0.012533452 0.17040972 -1.2986912 -1.3160604
0003a0 8a 68 fe 3f 26 bc bb bf 18 3f bc bd 3d 12 98 b4
       1.9875653 -1.4666793 -0.09191722 -2.8325476e-07
0003b0 36 e9 c0 39 d1 14 4b be 4d e7 4a ad 1e 5a 08 b6
       0.0003679485 -0.1983216 -1.153373e-11 -2.0318034e-06
0003c0 e8 90 2a bf 14 a5 c5 be 10 68 f2 3a 4c 3e bd bb
       -0.6662736 -0.38602507 0.0018494148 -0.0057752486
0003d0 7d c3 a2 37 6f 1b 00 80 4c f6 15 bb a4 a2 89 bc
       1.9402936e-05 -9.841e-42 -0.00228824 -0.016801186
0003e0 60 1b 00 00 c5 7f 31 2a 7a 26 4c bc 80 1c 39 b2
       9.82e-42 1.5765087e-13 -0.012460345 -1.0774897e-08
0003f0 30 3e 86 3f ab 3d 99 3e f3 e8 e5 bf f7 6c 94 3e
       1.0487728 0.2992986 -1.7961715 0.28989384

conv2.bias f4 [2]
000000 b7 57 af 3e 67 58 af be
       0.3424661 -0.34247133

conv2.lin.weight f4 [2, 32]
000000 e5 12 30 be d6 a9 2b be be 20 67 bd f9 bc 46 be
       -0.17194708 -0.16764006 -0.05642771 -0.19408025
000010 8f 7d f8 bd 7e 26 0d 3c 2f 1e 5a bf 78 7d 8d 39
       -0.121333234 0.008615134 -0.85202307 0.00026987097
000020 85 df 34 bf 17 b2 89 bf b7 bf 9c 3b b1 70 e2 bd
       -0.70653564 -1.0757474 0.0047835964 -0.110566504
000030 93 5b 8b bf 20 67 ae bd 06 f1 aa bc e8 bf 48 bc
       -1.0887321 -0.08515763 -0.020866882 -0.012252785
000040 12 a8 fd 3d 0a 90 c2 3d 6d 00 3b 3c f7 e4 78 bf
       0.123855725 0.095001295 0.011413676 -0.9722437
000050 b0 ea a3 3e c0 fb 72 3f 5d 69 9e 3d ca 8f 87 bd
       0.3201499 0.9491539 0.0773494 -0.066192225
000060 cb ab 29 bf f4 a6 5b 3f 10 9f 7d be 4e 92 52 3c
       -0.6627776 0.85801625 -0.24767709 0.012852265
000070 8f 26 8a bf a0 6e 33 be ec 6d 60 3c 23 f7 0a 3f
       -1.0793017 -0.17522669 0.013698082 0.5428335
000080 e0 12 30 3e 8f a9 2b 3e 26 2f 60 3d f8 bc 46 3e
       0.171947 0.167639 0.054732464 0.19408023
000090 39 7d f8 3d 84 26 0d bc 3c 1d 5a 3f 8f bd 8c b9
       0.12133259 -0.00861514 0.8520086 -0.00026844113
0000a0 6c df 34 3f 01 b2 89 3f ee fb 31 bc b3 70 e2 3d
       0.70653415 1.0757447 -0.010863287 0.11056652
0000b0 8b 5b 8b 3f 19 67 ae 3d 31 ed aa 3c 9c bf 48 3c
       1.0887312 0.08515758 0.020865055 0.0122527145
0000c0 57 a8 fd bd 0b 90 c2 bd 71 00 3b bc dc e4 78 3f
       -0.12385624 -0.0950013 -0.011413679 0.9722421
0000d0 36 48 a3 be c0 e9 72 bf ec 69 9e bd cf 8f 87 3d
       -0.3189103 -0.94887924 -0.07735047 0.06619226
0000e0 ea a5 27 3f da bd 5b bf 0c 9f 7d 3e 02 22 52 bc
       0.6548754 -0.85836565 0.24767703 -0.012825491
0000f0 71 ec 89 3f 2f 52 33 3e ec 6d 60 bc 23 f7 0a bf
       1.0775281 0.1751182 -0.013698082 -0.5428335
