models/best_model_for_half_adder.pth (torch, 3872 bytes, 4 tensors)

conv1.bias f4 [32]
00000000: b8e6 96bd b333 37bd 8a1a a73d 8678 913d
00000010: 0463 abbd ad41 c73d c97c b43c 13d8 0a3c
00000020: dbf2 003d c6ed 9d3d e1df a63d a663 cbbd
00000030: 0d5e 4f3c 63af f3bc 1cc1 5ebc 8e1f 3ebd
00000040: 3d59 b23d 1a67 cfbd 51cf abbd 274a ae3c
00000050: 405e 903d 330e 2ebd 07a0 21bb ab8b 14be
00000060: 7845 97bd c3d6 70bd cf79 b63c ba0c 3bbd
00000070: 3b5e ae3d 7d76 2b3d 80ca 99bd cf88 ccbd
-0.07368225 -0.04472704 0.08159359 0.07103066 -0.08368495 0.097293235 0.022032158 0.008474368
0.031481605 0.07711367 0.0814817 -0.09931116 0.012656701 -0.029746717 -0.013595846 -0.04641681
0.08708427 -0.10127087 -0.08389152 0.021275593 0.07049227 -0.04249401 -0.0024662034 -0.14506404
-0.07386297 -0.058798563 0.02227488 -0.045666434 0.08514067 0.041861046 -0.07509327 -0.09987032

conv1.lin.weight f4 [32, 8]
00000000: c90a 2cbd 2f0c 9538 8dea 58bd 8363 8ab8
00000010: 3d45 16b8 e0cc e137 d0ae 9bb8 21cd 7cbd
00000020: 6a13 27be 0f34 ef38 5616 0fbe df6a 2f3e
00000030: cf62 e4b6 a445 223f 6312 053b e7b6 703d
00000040: 0a89 733d e167 35bd 25d6 18be 4abe 533e
00000050: 49e1 3fbd 56c5 0c3f 0620 30be 343c 9b3d
00000060: bcd1 0abe 4e5a e3bd c92d 9d3d 22f6 a13e
00000070: e8d1 61bd ca87 af3e dc88 39be 896b 543d
00000080: ef3d 97be 986e 3839 0766 8e3e c057 cc37
00000090: 924f 87b8 681a deb7 60b2 b136 b8e5 a1be
000000a0: a043 ddbd b6fc af3d a93a 8ebd f765 8d3e
000000b0: 6130 92b8 b1a1 52bf b3f1 313f 69ac c2bd
000000c0: 6b61 88be a7f1 e4bd ad56 aebd a970 b93d
000000d0: 6af1 88bd f41e 463f f3fe 8bbd e241 163d
000000e0: 8299 98be 17b2 e3bd ef29 bc3e 72c3 cbbc
000000f0: 6302 5cb8 3e71 f03e 2304 403e 039e 3bbe
00000100: 6f9f fabd 0576 bd3d d97b bb3c 8dff b53e
00000110: f841 803d 4939 ffbe ccd8 7d3e fa64 823e
00000120: a79e ed3c 5eba 453d bf7d 37bd 9d89 593e
00000130: ce07 45b8 3f56 4c3f 5ded 40be 2cc9 59be
00000140: 3722 993e d6c8 e43d 8679 883e 88ab 2c3e
00000150: 7531 2a39 b0e1 2bbf 4793 bb3e ae79 a3be
00000160: 758b 133c 4068 eb38 b4e1 79be e376 87be
00000170: 573f 433c 4478 3f3e fcf3 e63d fc9c 273e
00000180: 788c 303e 0f3b adbd 7c1d 863e 2b89 2d3e
00000190: 02d2 24b9 6323 5d3f 407b 20be f46f 24be
000001a0: 5b55 413e 55c8 ac3d b12c b93d f0e4 763e
000001b0: 5e5e e53a af3e 05be cd94 df3c 93a0 1c3d
000001c0: f5da 223a 00b4 e138 263c 52b8 72bf 56bc
000001d0: 70ea e5b8 a9d7 66bc b9c2 a5b8 6537 ef38
000001e0: e8da fa3d 3cdc e4bd 4608 2ebe acb0 2a3d
000001f0: 1f55 e4bd 094e a03f 8480 d3bd d1fb 443d
00000200: e867 2f3d bc54 afbd c344 f33d da5d 833d
00000210: 65fb 9cbd 2c47 8d3f 1cef 4bbe 27d4 df3d
00000220: 0dea 67be ba60 c937 1560 0038 6b6d 1bbe
00000230: 3975 9b38 2bc5 073e 0415 283c d404 7bbe
00000240: 8b8b 193e 60dc 35bd 820f 63be bec3 76bd
00000250: 1779 63bd 28be 3639 3880 f7bd 1937 783e
00000260: 5aec c23e a983 453d cc09 30be ca05 cc3c
00000270: 5a38 dbbc 8497 473f 5217 3bbe ff43 3cbd
00000280: 9d45 2c3d 277e d83d 11eb 0fbe 5946 103e
00000290: 73e1 b03d 76ad 0cbf 3518 c43e 8d75 583e
000002a0: 6816 7ebe 101b e53d e1b1 673e fafd 9db8
000002b0: 7659 57b8 e644 b8bc dc5f bc3d 7e69 a73c
000002c0: 8f0a c1be 306c af3d 0322 e63d 3dc5 9a3e
000002d0: 7cb2 45bd 97a1 41bf 2054 913e 8fe9 593d
000002e0: ea4d 153e 4540 1c39 8975 513e ffa1 af3c
000002f0: e1e2 b8bc 2d1d debd 4878 4a3d adfa 193e
00000300: 11ce 073e 0216 ccbd 9aa3 71be aa2d 8a3e
00000310: 5ce0 97bd 0cf5 673f 81ac a6be 7b80 5b3e
00000320: aa8e 82bd 7d96 3839 8144 2abd 8a1c 3739
00000330: 6d0d 6cb8 5c58 5a37 34c8 83b7 b8d6 76bd
00000340: 488c 993e 885e d2bd ed7c 18be 0460 44bd
00000350: 1c4a f1bd dde6 2b3f d0ff f2bd b7d8 723e
00000360: 35b4 bebc 1a8c cfb7 46ad dabc 5c2a 3839
00000370: 93f3 37b9 8e62 9238 954d 3838 c56f a6bb
00000380: a1de d33e 9733 d8bd 688b c43e c3b1 c83e
00000390: 9517 53bd bfb1 763f 6182 c8bd 5ddd 343d
000003a0: 99ed 033d d300 a1bd cbab b43b 0137 f43d
000003b0: 3e40 0dbd 4b50 413f 54ae 37be feff b5bc
000003c0: 5753 85be 7980 e638 4eaa 1b35 c7bc eb3c
000003d0: ef77 36b9 3713 dfb8 7c2d 33bd 657b 753d
000003e0: 0974 cd3d b22d 1d3d 31a9 113e ff49 b5be
000003f0: fb36 e838 a41d 823e c588 b73c 36a1 92bd
-0.042002473 7.107143e-05 -0.05295806 -6.598888e-05 -3.582727e-05 2.6917493e-05 -7.423537e-05 -0.061719064
-0.16316 0.00011406105 -0.13973364 0.17130612 -6.8064323e-06 0.63387513 0.0020305149 0.05876818
0.059456863 -0.04428852 -0.1492544 0.20678058 -0.046845708 0.5498861 -0.17199716 0.07579842
-0.1355657 -0.111012086 0.076747485 0.31633097 -0.055131823 0.34283286 -0.18118614 0.051860366
-0.2953944 0.00017588807 0.27812216 2.4359557e-05 -6.452123e-05 -2.6476759e-05 5.2957766e-06 -0.31620574
-0.10803914 0.08593123 -0.06944782 0.27616856 -6.970834e-05 -0.8227797 0.6950943 -0.09505541
-0.26636824 -0.11178904 -0.08512626 0.09054691 -0.06686671 0.7739098 -0.06835737 0.036683924
-0.29804617 -0.11117952 0.36750743 -0.024873469 -5.245431e-05 0.46961397 0.18751578 -0.18321995
-0.12237441 0.09251026 0.022886204 0.35546532 0.062625825 -0.49848393 0.24789733 0.25467664
0.029006315 0.048273437 -0.044797655 0.21243902 -4.697573e-05 0.798191 -0.18840547 -0.21268147
0.29908916 0.11171119 0.26655215 0.16862309 0.00016230888 -0.67141247 0.366358 -0.31928772
0.009005417 0.00011225091 -0.24402505 -0.2645789 0.011916957 0.18698221 0.11277005 0.16368479
0.17241085 -0.0845853 0.2619437 0.16946857 -0.00015718493 0.8638212 -0.15672016 -0.16058332
0.18880217 0.08436648 0.09041727 0.2411077 0.0017499437 -0.13012193 0.027292633 0.038239073
0.0006212437 0.00010762364 -5.012392e-05 -0.013107168 -0.00010963238 -0.014089503 -7.904083e-05 0.00011406726
0.12248784 -0.11174819 -0.16995344 0.041672394 -0.11149048 1.2523814 -0.10327247 0.048091713
0.042823702 -0.08561084 0.1187835 0.06414385 -0.07665137 1.1037345 -0.19915432 0.10929137
-0.22647877 2.4006109e-05 3.060706e-05 -0.15178458 7.4128104e-05 0.13258807 0.010258917 -0.2451356
0.14994638 -0.04439962 -0.22173885 -0.060245268 -0.055535402 0.00017427711 -0.12085003 0.24239768
0.38070947 0.048221264 -0.17191237 0.024905104 -0.026760269 0.7796557 -0.18270615 -0.045963284
0.042058576 0.10570937 -0.14054514 0.14089336 0.08636751 -0.5495218 0.38299718 0.21138592
-0.24813235 0.111868024 0.22626449 -7.53365e-05 -5.134331e-05 -0.02249379 0.09197971 0.020436045
-0.37703368 0.08565557 0.11236956 0.30228606 -0.04826592 -0.7563719 0.28384495 0.053201254
0.14580503 0.00014901262 0.20454992 0.02143955 -0.022569122 -0.108454086 0.049431115 0.15037031
0.13262202 -0.09965135 -0.23597565 0.26987964 -0.0741584 0.90608287 -0.32553485 0.2143573
-0.06374867 0.00017603669 -0.041569237 0.00017462872 -5.627929e-05 1.3014385e-05 -1.5709644e-05 -0.060263366
0.2998984 -0.10271937 -0.14891405 -0.04794313 -0.11781713 0.67149144 -0.118651986 0.23715483
-0.023279289 -2.4741563e-05 -0.026693951 0.00017563388 -0.00017542978 6.98018e-05 4.3941272e-05 -0.005079242
0.4138079 -0.10556715 0.3838761 0.3919812 -0.05153616 0.9636497 -0.09790493 0.04415642
0.032209013 -0.07861485 0.0055136434 0.11924554 -0.034485094 0.7551314 -0.17937595 -0.022216793
-0.26040146 0.000109911845 5.7989826e-07 0.02877654 -0.00017401551 -0.00010637048 -0.04374455 0.05993213
0.100318976 0.038373657 0.14224698 -0.35408017 0.00011072863 0.2541324 0.022404084 -0.07159655

conv2.bias f4 [2]
00000000: 8f98 06bd 8198 063d
-0.032860335 0.032860283

conv2.lin.weight f4 [2, 32]
00000000: ea6a 8c3c f944 e4be 11dd 6abc c895 b83d
00000010: ac63 4c3e c396 343f d031 18bf 57de 063e
00000020: b84f a23d febc 73bf 74af 253f a78f 243e
00000030: df6f 85be 32e5 d23d 828d 52b9 a341 b0be
00000040: c7d3 dbbe d439 84bd c35c 61be 98f5 133c
00000050: 448d e63e 18c8 d5bd a413 f53e 0bdf 423e
00000060: f2d0 f6be b5b4 77b8 7f93 8fbe 64bb d2ba
00000070: 70f9 c5bc d167 38be 8a78 4fbe c06a 843e
00000080: 3703 b53c 60a1 ad3e d0af a73e 25b2 da3e
00000090: fb92 1ebe 41ef 99be 027d 283f de8b 643e
000000a0: 0b47 94be 92c4 273f 97b6 23bf 4117 a6bd
000000b0: 9185 8b3e ad6a e9bc b19b 6939 89cb 333f
000000c0: 84bb dc3e 67ba 78be 5969 4a3e c601 0a3f
000000d0: 0373 b6be 6e3f 97be 3fa0 ffbe c7fc 62be
000000e0: cc04 153f 8c34 1338 358d 683e c34e a73a
000000f0: 17ee 8d3e 2a0a 633e 5548 a9bd 09e4 8c3e
0.017140824 -0.44583872 -0.014334933 0.090129435 0.19959897 0.70542544 -0.5945101 0.13170753
0.079253614 -0.95210254 0.64720845 0.16070424 -0.26061913 0.10297622 -0.00020079876 -0.34425077
-0.4293501 -0.06456342 -0.22008042 0.009030722 0.45029652 -0.104385555 0.47866547 0.19030397
-0.48206288 -5.9057686e-05 -0.28042218 -0.0016077575 -0.024166793 -0.18008353 -0.20260826 0.25862694
0.02209626 0.33912182 0.32751322 0.42714038 -0.15485756 -0.3006535 0.65815747 0.2231898
-0.2896045 0.6553432 -0.63950485 -0.08109904 0.2725034 -0.02849325 0.00022278611 0.70232445
0.43111813 -0.24289857 0.1976675 0.53908956 -0.35634622 -0.2954058 -0.49926946 -0.2216674
0.58210444 3.509647e-05 0.22710116 0.0012764562 0.2772071 0.22171846 -0.08265749 0.27517727
